outputs/dqn_cartpole.pth (torch, 273553 bytes, 6 tensors)

net.0.weight f4 [256, 4]
0.9779245 -0.016459063 1.0439482 0.032559272 -0.104018286 0.25313157 -1.2367568 -0.05701513
-0.03801215 0.11686448 -0.6647519 0.27098253 0.0022823464 -0.003449844 0.27750203 -0.30093053
0.25916338 -0.103358604 0.65266055 -0.15072675 -0.14220239 -0.31876504 -0.39527562 -0.18653892
0.026094358 0.19764689 0.7419895 -0.016878525 -0.2712559 0.22914666 -0.2972579 0.11142155
-0.16413686 0.013589937 1.0917729 -0.3950635 0.22554876 -0.23719376 -0.26661468 0.3254262
0.15905823 -0.20166348 -0.51831543 0.28425294 -0.39984703 0.27208138 -0.5638355 0.10470393
-0.6216537 0.024673175 -0.030385464 0.09667257 0.008081848 -0.010732933 1.6288056 0.027197057
-0.03181812 0.008763098 1.9769903 0.26235136 -0.14640245 0.24219662 -0.14759688 -0.08718059
-0.2898624 0.32707816 0.4514949 -0.017039008 0.12905632 -0.15574086 0.10755963 -0.28266492
-0.5368197 0.058629848 -0.26003796 0.07725794 -0.24872583 0.21612391 0.6156447 -0.31322557
-0.14498205 -0.31414223 0.24895827 0.5631333 0.29345605 0.532209 0.7014027 0.4550764
-0.46865273 -0.05274462 -0.9647117 -0.48345923 0.57975715 0.116225414 -0.68971914 0.211645
-0.31824777 -0.19050397 0.66733724 -0.44319627 -0.22845626 0.14204653 -0.053974606 -0.15429868
-0.3794689 -0.2861056 -0.67778045 -0.19617474 -0.12665099 -0.43870157 1.0164795 -0.16392997
0.11332191 0.48305058 -0.3053488 0.3664233 0.28053826 -0.15053022 -0.3162952 -0.026757402
0.1012032 -0.44918534 0.6413594 -0.14196545 0.28423533 -0.11461531 -0.42566377 -0.27942076
-0.49842945 -0.07583206 -0.6133137 -0.06342204 0.5319052 0.026348772 -0.4121848 -0.10964507
-0.5739956 -0.194078 -0.16166498 -0.10202449 -0.7289035 -0.14369743 0.24417254 0.14845443
-0.17453735 -0.06635058 0.77622145 0.0084738275 -0.18639624 0.18844126 -0.18537158 0.22086476
-0.319349 0.064601436 0.89844906 0.2999447 -0.0060666655 0.41614515 -1.0246519 0.21478486
0.056472182 0.5654757 -0.51546687 -0.2744818 1.0298367 0.19946137 0.56355387 -0.08059468
0.91369027 0.5499445 0.3609365 0.3143279 0.0111477785 -0.043560624 -1.6004577 -0.092250384
-0.8682145 0.05967881 -0.27686802 0.17778412 -0.22723332 0.53998023 0.1826368 0.41607633
-0.4967614 -0.18098207 -0.48012975 -0.058460984 -0.38997898 0.36850014 0.9528456 -0.02663884
0.52439874 0.07842544 -0.15579239 0.11175274 0.86808985 -0.085154824 0.70094055 -0.048811637
-0.55244476 0.24285373 -1.011896 -0.30174935 -0.52835953 -0.45620877 -0.64901334 -0.2951696
0.064343065 -0.13632895 0.22338818 0.6115044 -0.045268215 0.06706349 1.4514872 0.5777605
0.037264563 -0.071421914 -0.064367935 0.32131174 -0.24576598 -0.21028692 -0.42503986 0.15124664
-0.16814496 0.4901834 0.78273225 -0.3287498 -0.07956327 0.19993807 0.024300206 0.13462637
-0.35910812 0.2778387 -1.0398023 0.3096073 -0.31450522 0.018139904 0.09008319 0.09891453
0.8687562 -0.25309584 0.2910076 -0.13692603 0.30305347 0.22380735 0.459267 0.2848798
-0.16406748 0.05421981 -2.3033512 -0.13704582 0.014128312 0.4705379 0.74925685 -0.09624031
00000000: 4359 7a3f 28d5 86bc 18a0 853f df5c 053d
00000010: 8a07 d5bd 769a 813e 0c4e 9ebf b288 69bd
00000020: a1b2 1bbd a556 ef3d 2e2d 2abf 39be 8a3e
00000030: 6b93 153b c716 62bb bf14 8e3e 9113 9abe
00000040: 10b1 843e adad d3bd c314 273f 1d58 1abe
00000050: 819d 11be 2c35 a3be 9161 cabe 0f04 3fbe
00000060: d6c3 d53c f263 4a3e 06f3 3d3f d544 8abc
00000070: 0ee2 8abe 6ca5 6a3e 3032 98be fb30 e43d
00000080: 7e13 28be 54a8 5e3c 37bf 8b3f c345 cabe
00000090: 41f6 663e ece2 72be b881 88be 439e a63e
000000a0: 29e0 223e df80 4ebe 52b0 04bf 9a89 913e
000000b0: c0b8 ccbe 404e 8b3e 8657 10bf 046f d63d
000000c0: b224 1fbf 661f ca3c f0ea f8bc 45fc c53d
000000d0: ba69 043c 2fd9 2fbc b47c d03f 5dcc de3c
000000e0: b853 02bd 1993 0f3c 050e fd3f eb52 863e
000000f0: 86ea 15be 6402 783e a323 17be bd8b b2bd
00000100: d868 94be ca76 a73e 572a e73e 6495 8bbc
00000110: 5727 043e 887a 1fbe 3948 dc3d 75b9 90be
00000120: 046d 09bf da25 703d b223 85be 6939 9e3d
00000130: fcb1 7ebe 964f 5d3e e49a 1d3f 1a5f a0be
00000140: 2d76 14be 40d7 a0be ebee 7e3e 8129 103f
00000150: df3f 963e d93e 083f 218f 333f c6ff e83e
00000160: 40f3 efbe be0a 58bd 59f7 76bf f887 f7be
00000170: f76a 143f 9707 ee3d 6f91 30bf 78b9 583e
00000180: 5ff1 a2be 7913 43be 9dd6 2a3f 9fea e2be
00000190: 70f0 69be a574 113e 7a14 5dbd 7900 1ebe
000001a0: bf49 c2be 6f7c 92be 0583 2dbf 08e2 48be
000001b0: ccb0 01be 7e9d e0be 001c 823f 42dd 27be
000001c0: 5115 e83d 6852 f73e ae56 9cbe d69b bb3e
000001d0: b6a2 8f3e 9824 1abe 72f1 a1be 5732 dbbc
000001e0: a043 cf3d 9ffb e5be 2130 243f 645f 11be
000001f0: 4b87 913e 6fbb eabd 9af0 d9be 3d10 8fbe
00000200: 2532 ffbe d74d 9bbd 2002 1dbf 6ae3 81bd
00000210: f02a 083f 61d9 d73c e309 d3be 988d e0bd
00000220: 60f1 12bf 62bc 46be 818b 25be 37f2 d0bd
00000230: 6b99 3abf 6b25 13be 5e08 7a3e 7004 183e
00000240: ebb9 32be d0e2 87bd 73b6 463f cfd5 0a3c
00000250: a8de 3ebe bff6 403e 0cd2 3dbe 5f2a 623e
00000260: b681 a3be c24d 843d c200 663f 5a92 993e
00000270: e1ca c6bb fa10 d53e cb27 83bf 90f0 5b3e
00000280: 604f 673d 04c3 103f a3f5 03bf e188 8cbe
00000290: b0d1 833f 9a3f 4c3e 1145 103f d30e a5bd
000002a0: 9be7 693f 2ac9 0c3f abcc b83e 96ef a03e
000002b0: 2ca5 363c a06c 32bd ccdb ccbf c5ed bcbd
000002c0: 4e43 5ebf c571 743d a5c1 8dbe 0a0d 363e
000002d0: daaf 68be 253c 0a3f 2405 3b3e f507 d53e
000002e0: 8357 febe 5d53 39be 91d3 f5be c974 6fbd
000002f0: 53ab c7be 0dac bc3e b0ed 733f b239 dabc
00000300: ff3e 063f 849d a03d 0a88 1fbe 9fde e43d
00000310: 233b 5e3f a765 aebd d770 333f b6ee 47bd
00000320: 056d 0dbf a6ae 783e cf85 81bf e47e 9abe
00000330: 9242 07bf 3294 e9be bd25 26bf 7820 97be
00000340: 4cc6 833d d199 0bbe dfbf 643e 8d8b 1c3f
00000350: 2a6b 39bd 9558 893d 55ca b93f 1de8 133f
00000360: baa2 183d a745 92bd 56d3 83bd f982 a43e
00000370: 14aa 7bbe 7455 57be d39e d9be 66e0 1a3e
00000380: 312e 2cbe 52f9 fa3e 2461 483f e551 a8be
00000390: 11f2 a2bd 91bc 4c3e 3a11 c73c 7fdb 093e
000003a0: 05dd b7be e040 8e3e 3e18 85bf d984 9e3e
000003b0: d406 a1be 239a 943c 897d b83d b393 ca3d
000003c0: ce66 5e3f c795 81be f3fe 943e 5636 0cbe
000003d0: d329 9b3e c12d 653e 0b25 eb3e c4db 913e
000003e0: 4e01 28be 9715 5e3d 1b6a 13c0 bd55 0cbe
000003f0: 6f7a 673c 58ea f03e 4ccf 3f3f a419 c5bd

net.0.bias f4 [256]
-0.0060150726 -0.12178129 0.094738424 0.2764769 0.28696766 0.08604428 0.29841998 0.10722601
-0.100483164 0.051654138 0.167894 0.23255306 -0.033821553 -0.31407863 -0.41383675 -0.67677724
0.31386963 0.38994136 -0.8736546 0.026006684 -0.13069034 -0.23941365 -0.59605193 0.17136946
0.032961782 0.391916 0.008773538 0.21731871 -0.30640376 -0.4385045 0.107580125 0.32548606
-0.7261182 -0.41178685 0.011400639 -0.34594196 0.19816495 -0.4495671 -0.45004493 -0.104342714
-0.2637873 0.30657277 0.022457574 -0.3094297 0.087195195 -0.2084064 -0.21988674 -0.17608345
0.06866029 -0.08825858 0.07863161 -0.26377642 -0.6642906 -0.7195725 0.433002 0.32412887
-0.66846263 -0.52437055 0.020761076 0.0890351 -0.11267656 0.26209384 0.45056346 0.111369126
0.21697423 0.12677434 0.28449574 0.2795015 -0.21185726 -0.41614357 0.4230672 -0.13244766
-0.2053462 0.1266462 0.413764 -0.2152203 0.12333856 -0.4273004 0.024229875 -0.20033427
0.08708783 0.29598826 0.32790524 0.33075437 0.3908117 0.44502458 0.16300422 0.12316797
0.1986709 -0.3562643 0.21354316 -0.16662477 -0.47392985 0.2946193 0.30116773 -0.33257744
-0.080895096 0.0067142583 0.23596756 -0.42992774 -0.7902445 0.23783126 -0.49722534 -0.12606928
-0.4496306 0.06885786 0.11989569 -0.6478844 0.16056086 -0.32159927 0.096758686 -0.39799082
-0.47898737 0.20491138 -0.6441792 0.4168027 -0.70496446 0.07710798 -0.2888689 0.06855684
0.2309072 0.28361008 -0.384559 0.069517076 -0.36501622 0.27407345 -0.30130827 -0.4232381
-0.43237796 -0.1121004 -0.15264693 -0.35511047 0.24763454 0.12236192 0.19418144 0.23331614
0.18414417 -0.3526743 -0.022121195 0.22199309 -0.37382844 -0.41451222 -0.6062429 -0.06139601
-0.32659328 -0.019943966 0.25969353 -0.14572108 0.085930765 0.021665255 0.2735518 -0.8798026
0.07991836 0.16906413 -0.47468904 0.032843105 0.08259368 -0.58672774 0.07680017 0.03433048
-0.0721511 -0.45736825 -0.42337576 0.021377819 0.0046840413 -0.37224856 -0.29936203 -0.18231444
-0.34388754 0.45093414 0.031686224 -0.22126439 -0.1960499 0.056742232 -0.19900937 0.33564183
-0.17662986 0.21459788 -0.4254852 -0.025860697 0.44102368 -0.6613824 0.043072987 0.42531353
0.107847504 0.45078546 0.27053314 -0.34863117 0.09506463 0.10421493 0.28939682 0.50945646
0.3939402 -0.27717802 0.093358666 0.033053152 -0.34779513 0.047625646 -0.41108975 -0.2746818
0.30238664 -0.15700692 0.44205624 -0.16100903 -0.023376646 0.10289518 0.20463164 -0.7188943
0.100131944 -0.6057518 0.24052134 -0.4665671 -0.34945032 0.11518281 -0.029019251 -0.8613021
0.062353816 0.2906871 -0.010203081 -0.24749851 -0.31339872 -0.17917924 -0.2224043 -0.8267034
-0.056020346 -0.20575044 0.046436567 -0.54023856 -0.242416 0.1490365 -0.32547235 0.11162926
0.09512893 0.0072713485 -0.10630637 -0.43354607 0.08767018 0.10137305 0.008751786 -0.0009192082
-0.5382316 -0.14932363 -0.44921437 -0.14578164 -0.609814 -0.24535759 0.12045335 -0.3564609
-0.6314957 0.05875256 0.33597246 -0.09395919 -0.54939014 -0.06281216 -0.42722914 0.0955164
00000000: 161a c5bb 7868 f9bd 3806 c23d 618e 8d3e
00000010: 6ded 923e fc37 b03d 81ca 983e 4f99 db3d
00000020: 1eca cdbd 4a93 533d 68ec 2b3e 6422 6e3e
00000030: 7888 0abd eace a0be 69e2 d3be 4641 2dbf
00000040: 85b3 a03e 65a6 c73e d4a7 5fbf f80b d53c
00000050: b0d3 05be da28 75be dc96 18bf 7a7b 2f3e
00000060: ef02 073d 37a9 c83e e3be 0f3c cc88 5e3e
00000070: f4e0 9cbe a983 e0be f852 dc3d 1ca6 a63e
00000080: e2e2 39bf bad5 d2be bfc9 3a3c 4e1f b1be
00000090: c1eb 4a3e a92d e6be 4a6c e6be a2b1 d5bd
000000a0: 210f 87be 1bf7 9c3e f2f8 b73c 926d 9ebe
000000b0: 6593 b23d 7d68 55be fd29 61be 384f 34be
000000c0: c49d 8c3d eac0 b4bd 9c09 a13d b40d 87be
000000d0: f30e 2abf e735 38bf 70b2 dd3e 38f4 a53e
000000e0: 5e20 2bbf 263d 06bf 2213 aa3c 0958 b63d
000000f0: f8c2 e6bd 2a31 863e 41b0 e63e 7f15 e43d
00000100: 7e2e 5e3e 22d1 013e 6da9 913e d21a 8f3e
00000110: 1cf1 58be c510 d5be 449c d83e 5ca0 07be
00000120: 4646 52be 8baf 013e e0d8 d33e b662 5cbe
00000130: ed98 fc3d 1ec7 dabe bb7d c63c 6d24 4dbe
00000140: 1b5b b23d c68b 973e 32e3 a73e a358 a93e
00000150: 7918 c83e 43da e33e 94ea 263e 7d3f fc3d
00000160: 6270 4b3e 4668 b6be 0fab 5a3e af9f 2abe
00000170: efa6 f2be 57d8 963e a832 9a3e 9747 aabe
00000180: 54ac a5bd 4803 dc3b 7ba1 713e 7d1f dcbe
00000190: 774d 4abf 0a8a 733e 5294 febe 4e18 01be
000001a0: fb35 e6be 5a05 8d3d df8b f53d c1db 25bf
000001b0: 116a 243e a9a8 a4be 6b29 c63d 74c5 cbbe
000001c0: d53d f5be 4ad4 513e eee8 24bf 2a67 d53e
000001d0: 8d78 34bf caea 9d3d a0e6 93be 8767 8c3d
000001e0: f072 6c3e 5735 913e ebe4 c4be f85e 8e3d
000001f0: 68e3 babe 5b53 8c3e 1445 9abe aab2 d8be
00000200: a560 ddbe e594 e5bd 7a4f 1cbe 0ad1 b5be
00000210: e993 7d3e e398 fa3d 80d7 463e 6dea 6e3e
00000220: 4a90 3c3e ba91 b4be 8237 b5bc 2852 633e
00000230: 7166 bfbe f23a d4be bc32 1bbf 627a 7bbd
00000240: 3c37 a7be 8761 a3bc 8df6 843e e837 15be
00000250: 78fc af3d 557b b13c fb0e 8c3e be3a 61bf
00000260: 3dac a33d 261f 2d3e 710a f3be 7e86 063d
00000270: e026 a93d ca33 16bf 6849 9d3d 1e9e 0c3d
00000280: f5c3 93bd 2c2c eabe b5c4 d8be 8920 af3c
00000290: 967c 993b 5d97 bebe fb45 99be a3b0 3abe
000002a0: 0712 b0be d7e0 e63e 6ac9 013d 2293 62be
000002b0: 4ec1 48be 8b6a 683d 1dc9 4bbe 3fd9 ab3e
000002c0: 75de 34be 8cbf 5b3e 32d9 d9be d0d9 d3bc
000002d0: dbcd e13e 5b50 29bf 4d6d 303d b2c2 d93e
000002e0: 27df dc3d 5acd e63e 5283 8a3e c97f b2be
000002f0: 3fb1 c23d a36e d53d d22b 943e bd6b 023f
00000300: 88b2 c93e 47ea 8dbe d432 bf3d be62 073d
00000310: 3412 b2be 1c13 433d 5b7a d2be 18a3 8cbe
00000320: 6cd2 9a3e 6cc6 20be 3255 e23e 8ddf 24be
00000330: 6180 bfbc b5ba d23d f58a 513e 7509 38bf
00000340: fa11 cd3d 8d12 1bbf 3a4b 763e e2e1 eebe
00000350: 27eb b2be f7e4 eb3d c8b9 edbc 4b7e 5cbf
00000360: b766 7f3d f1d4 943e d32a 27bc 4070 7dbe
00000370: cc75 a0be c37a 37be f4bd 63be d6a2 53bf
00000380: 9775 65bd 3eb0 52be 4534 3e3d 134d 0abf
00000390: e63b 78be 069d 183e 50a4 a6be e29d e43d
000003a0: f5d2 c23d 7e44 ee3b 27b7 d9bd c0f9 ddbe
000003b0: 6c8c b33d ac9c cf3d a763 0f3c 05f7 70ba
000003c0: 8cc9 09bf 4be8 18be 6dff e5be c847 15be
000003d0: c51c 1cbf 053f 7bbe 3fb0 f63d 0b82 b6be
000003e0: b4a9 21bf 86a6 703d 9504 ac3e ad6d c0bd
000003f0: d5a4 0cbf a9a3 80bd c7bd dabe 1a9e c33d

net.2.weight f4 [256, 256]
-2.2920558 0.35653484 0.2754049 -0.10529435 -0.2868784 0.025777966 -0.3219435 0.23686066
0.21963118 -1.0317898 0.11956403 0.17204505 -0.74467695 0.014658962 -0.0020231775 0.07395312
-0.14313062 -0.1087278 -0.057550102 -1.0621586 -0.68347806 -2.0953972 0.48206565 0.2754283
-1.2415601 0.008235331 0.124221615 -1.6675262 -0.27911365 -0.06296543 -2.2119527 -0.02681072
0.056818955 -0.044317387 -0.79331535 -0.8809417 -1.7024853 0.01889497 0.049201168 1.2508361
-0.5673956 -0.2530817 -1.1617756 1.5613055 -0.58590525 0.39415607 -0.15360932 0.7304265
0.09208897 -1.7092205 0.41994393 0.074542366 -0.02230126 -0.06260239 -0.06951891 0.101586446
-0.40500996 0.030491881 0.7958601 -0.02747503 -1.1608984 -0.2536489 0.37796873 -1.4439064
-0.5824603 -3.4957552 -0.30411914 0.13946591 1.1882157 0.5925709 -0.09351732 -1.0256411
-0.54369056 0.06034672 -0.14996834 -1.3846651 0.37230912 0.14648569 0.19558488 1.836084
0.08456669 -0.17831688 0.062872685 -0.09392338 -0.014052249 -0.16928041 -0.61639994 -0.09894041
0.23578231 -1.0524187 -2.5277262 -1.4984695 0.012244325 0.17924853 -0.119606756 -0.4119143
-0.8200172 1.5024797 -0.12671492 -0.004204858 -2.625328 0.17383625 1.1076858 -1.4388721
-0.3114033 -0.03245804 -1.3026845 0.043991577 0.4941276 0.87473696 -1.0180745 -0.0018862776
0.15574981 -0.47968438 -0.021867078 0.24331924 -0.47519326 0.59982854 0.012309068 -0.3914358
0.27667588 -0.08682712 -0.12737773 0.014144676 1.6069955 0.31366134 -0.1013895 1.2534604
-0.99151915 0.29184237 -4.039344 -0.013642922 -0.38438132 -1.6429819 0.20987137 -0.64368737
-0.21251103 1.3086282 -1.0474519 0.518076 0.13345084 -1.8322611 -0.045758512 0.38305727
2.0720446 -1.1162412 -0.054729946 0.04447442 -0.33935353 -1.1273837 -0.5534501 -0.85238606
-0.56978226 -0.63225645 0.020954832 -0.26579162 -0.11828453 -0.90566677 -0.58634204 -0.34131914
-1.4673328 0.055944297 1.1614369 -0.7307374 -2.7907906 -0.03752964 -0.040529244 0.4734492
-0.59903073 0.1893178 0.052012306 -0.9136801 0.43896204 -0.3371641 -0.7503394 0.04547298
-0.596849 -0.5123807 9.4088755e-05 0.9519052 0.2736762 0.022047862 -0.65000707 -0.3228131
0.26467687 0.061230816 -0.2742879 1.3037053 -2.6678507 -0.54887325 0.035203785 -0.02606158
-0.033875 -0.43853575 0.35788387 -1.0735986 -0.05939727 -0.6362902 2.2611399 -0.03554561
0.03788753 1.2566228 0.0072175125 -2.4846294 -0.7887098 -0.34676895 -0.037662152 0.00038903207
0.24251448 -1.063507 0.023570973 0.016425459 0.031560864 -1.9430912 -1.1114223 0.23021613
-1.6516427 -0.68092936 0.34193394 -0.53491527 0.005772307 0.71707034 -0.24374539 -0.0032208927
-0.49745467 -0.73597664 0.15103021 -0.013873923 -0.029082181 0.41074622 -0.0016146875 0.40883318
-0.7061589 1.0991371 1.3279063 -1.132479 1.4748617 0.12868734 -3.261547 -0.5202513
-0.057474837 -0.02670695 -0.77414894 -1.9720513 0.03745846 1.9900296 0.16136071 -1.4544396
-0.07911408 0.37615028 -0.03970176 1.2644886 -0.06845909 1.2660768 2.0395133 -0.45508343
00000000: 0bb1 12c0 bc8b b63e df01 8d3e 90a4 d7bd
00000010: bae1 92be 502c d33c c7d5 a4be 9a8b 723e
00000020: ffe6 603e b011 84bf fcdd f43d 942c 303e
00000030: 26a3 3ebf 252c 703c 4997 04bb bc74 973d
00000040: d590 12be aeac debd a8b9 6bbd d0f4 87bf
00000050: 6bf8 2ebf fd1a 06c0 4fd1 f63e f004 8d3e
00000060: 71eb 9ebf 7bed 063c e767 fe3d 8071 d5bf
00000070: fce7 8ebe 05f4 80bd a290 0dc0 28a2 dbbc
00000080: feba 683d 2686 35bd b716 4bbf 6585 61bf
00000090: 0aeb d9bf a0c9 9a3c 2a87 493d 661b a03f
000000a0: d740 11bf ed93 81be 10b5 94bf dcd8 c73f
000000b0: e3fd 15bf d3ce c93e c34b 1dbe 3bfd 3a3f
000000c0: 2499 bc3d bdc7 dabf e402 d73e aba9 983d
000000d0: 22b1 b6bc af35 80bd ee5f 8ebd 8e0c d03d
000000e0: 775d cfbe 1cca f93c 7dbd 4b3f 5013 e1bc
000000f0: 5298 94bf 45de 81be 1e85 c13e edd1 b8bf
00000100: 1e1c 15bf 74ba 5fc0 81b5 9bbe 27d0 0e3e
00000110: 7417 983f bab2 173f 0286 bfbd 3548 83bf
00000120: 4e2f 0bbf 1f2e 773d 4d91 19be b53c b1bf
00000130: 4d9f be3e 5800 163e 6747 483e cd04 eb3f
00000140: 4d31 ad3d b398 36be 65c3 803d e75a c0bd
00000150: 673b 66bc d857 2dbe 63cc 1dbf 45a1 cabd
00000160: eb70 713e a8b5 86bf 44c6 21c0 d9cd bfbf
00000170: 6c9c 483c ed8c 373e 63f4 f4bd 6ee6 d2be
00000180: a6ec 51bf 4151 c03f 8ec1 01be e8c8 89bb
00000190: 6005 28c0 2102 323e a6c8 8d3f f62c b8bf
000001a0: 4170 9fbe b9f2 04bd 5ebe a6bf 8330 343d
000001b0: 4bfe fc3e c3ee 5f3f 4450 82bf f93c f7ba
000001c0: e17c 1f3e 3199 f5be 9622 b3bc ae28 793e
000001d0: 884c f3be 5d8e 193f f9ab 493c 466a c8be
000001e0: 76a8 8d3e 6bd2 b1bd 4f6f 02be 12bf 673c
000001f0: 07b2 cd3f 3898 a03e 4ca5 cfbd 6471 a03f
00000200: 33d4 7dbf 5d6c 953e 4e42 81c0 9086 5fbc
00000210: a1cd c4be 3b4d d2bf 85e8 563e b2c8 24bf
00000220: 7e9c 59be 2181 a73f e712 86bf a1a0 043f
00000230: 56a7 083e 8887 eabf 476d 3bbd 1520 c43e
00000240: 619c 0440 fee0 8ebf 822c 60bd cf2a 363d
00000250: bfbf adbe 1c4e 90bf e8ae 0dbf f935 5abf
00000260: 40dd 11bf 8fdb 21bf 78a9 ab3c d715 88be
00000270: 293f f2bd c7d9 67bf 831a 16bf 62c1 aebe
00000280: 90d1 bbbf d925 653d f7a9 943f 9b11 3bbf
00000290: 509c 32c0 aeb8 19bd fe01 26bd ef67 f23e
000002a0: 145a 19bf 86dc 413e db0a 553d f0e6 69bf
000002b0: a2bf e03e c6a0 acbe 3e16 40bf e041 3a3d
000002c0: 19cb 18bf 622b 03bf 8451 c538 0fb0 733f
000002d0: 491f 8c3e b89d b43c dd66 26bf c247 a5be
000002e0: ba83 873e 2acd 7a3d 776f 8cbe d1df a63f
000002f0: 11be 2ac0 f582 0cbf d831 103d 187f d5bc
00000300: 83c0 0abd c287 e0be 8e3c b73e ae6b 89bf
00000310: 8d4a 73bd eae3 22bf 84b6 1040 4698 11bd
00000320: f42f 1b3d 04d9 a03f e280 ec3b 2b04 1fc0
00000330: e3e8 49bf b38b b1be a143 1abd 00f7 cb39
00000340: b755 783e ff20 88bf ea17 c13c af8e 863c
00000350: f745 013d 36b7 f8bf 1643 8ebf c7bd 6b3e
00000360: 0769 d3bf 6351 2ebf f711 af3e 35f0 08bf
00000370: 9f25 bd3b ec91 373f 6498 79be 9d15 53bb
00000380: 61b2 febe f768 3cbf aaa7 1a3e 734f 63bc
00000390: c13d eebc 544d d23e eca3 d3ba 9552 d13e
000003a0: d4c6 34bf 86b0 8c3f d5f8 a93f 12f5 90bf
000003b0: 45c8 bc3f 9dc6 033e 30bd 50c0 302f 05bf
000003c0: bc6a 6bbd 89c8 dabc a02e 46bf 2d6c fcbf
000003d0: 0b6e 193d 4ab9 fe3f be3b 253e 142b babf
000003e0: 9006 a2bd c596 c03e 509e 22bd c3da a13f
000003f0: 4834 8cbd ce0e a23f 6387 0240 b200 e9be

net.2.bias f4 [256]
-0.025685357 0.0029352945 -0.00343697 0.12568356 -0.055213746 -0.02469566 0.19233668 0.22010516
0.17334056 -0.0035341734 -0.051955055 0.15548111 -0.011945282 0.11555702 -0.0608576 0.19393237
0.089605644 0.045058466 -0.14898795 0.15169303 0.16022594 -0.06479308 -0.026169132 0.02338229
0.14131673 0.012694844 0.09865949 -0.052413415 -0.011681844 -0.0107542155 -0.052492473 -0.053780667
0.029161416 0.016299615 -0.04030353 0.18957065 0.22911024 0.02590243 -0.07818856 -0.017734298
0.039686505 0.023476286 -0.01771007 0.008969823 0.026887719 -0.06563099 -0.045484312 0.046899296
-0.034582935 0.1787458 -0.014960988 0.19951484 0.022362666 -0.0031832743 -0.027007636 -0.07858201
0.17585745 0.16801424 0.1872979 0.18827349 -0.006975546 -0.037561767 -0.017661748 0.12256437
-0.06533335 0.15728118 0.1628791 -0.018267369 -0.027222713 0.12238034 0.14571297 -0.03155438
0.119381316 -0.071076974 0.20547953 0.12184597 0.1023717 0.12880117 0.08794282 0.16011344
0.055311944 -0.083886996 0.045052752 -0.003233242 -0.03038621 -0.055302445 0.17957772 0.14632638
-0.029496355 -0.01609878 0.17933108 0.031962406 -0.04191479 0.1443358 0.14330098 -0.05941271
0.0067739063 -0.053095154 0.23441797 0.018144706 -0.061742164 0.14559591 -0.092218846 0.1648413
0.022405464 0.1727694 0.11208781 -0.071835175 -0.021944396 -0.058978032 -0.06335189 0.045718234
-0.0077056694 -0.026226718 -0.017156065 -0.028655669 -0.012452688 0.09742801 0.033112466 -0.04621411
-0.017238464 0.03246821 0.19958486 0.055724565 -0.0137281865 0.18016325 -0.0063100504 0.15653174
0.03312754 -0.0349701 -0.040793862 -0.032034237 0.23126613 0.024901252 0.13278121 0.2263726
0.009353506 0.0033195543 0.032705564 -0.021716341 -0.038698427 0.15730819 -0.067359336 -0.07522128
-0.049474016 0.15089841 -0.06184898 -0.036787003 0.039196562 -0.084850855 -0.055588584 -0.028877461
0.11613679 0.20667265 0.16474962 -0.06437204 0.12834133 0.027183494 0.096110016 -0.08993427
-0.053588346 0.017160226 -0.047564507 -0.047565628 0.18747601 -0.04911117 0.012329936 0.1916394
0.049200807 -0.03339159 0.1453199 -0.06771359 0.17615744 0.10369041 0.12294415 0.14367956
0.018501518 -0.069037765 -0.032633238 0.20863137 0.18874037 0.022226887 -0.05876627 -0.062437635
-0.047208402 -0.047502294 0.1699375 -0.022380397 0.047322743 0.17513555 -0.026535047 0.020440323
0.1934566 0.15245505 0.1573111 0.15083751 -0.04486782 0.017808352 -0.102315575 -0.010873347
-0.06069668 0.17226036 0.0069665085 0.029812245 -0.06622961 -0.033340283 -0.02996799 0.021340275
0.019790445 0.17979443 0.16074336 -0.03575773 0.13772546 -0.011760339 -0.07559186 0.21630813
-0.064855605 -0.0060916985 -0.050096158 -0.045892272 -0.07340078 0.21176589 0.0049069324 0.03908459
-0.024975993 0.07402099 -0.029736185 -0.056068443 -0.028872207 0.025970865 0.14507842 0.15878533
0.13011137 0.019293215 0.18606035 -0.12291155 0.12247945 -0.019502003 -0.092464864 -0.038532928
0.14680983 0.030532978 -0.034257837 -0.0911732 -0.03556949 0.18841758 -0.051366292 0.17712775
-0.014101137 -0.024820661 -0.036930475 0.14875549 -0.36883655 -0.004633114 0.009392221 0.045759734
00000000: 196a d2bc 125e 403b ca3e 61bb 31b3 003e
00000010: cf27 62bd 8e4e cabc e8f3 443e 3f63 613e
00000020: 3080 313e 979d 67bb d3ce 54bd 7136 1f3e
00000030: 25b6 43bc 29a9 ec3d d245 79bd 3596 463e
00000040: 2a83 b73d 3a8f 383d 4c90 18be 6b55 1b3e
00000050: 4512 243e 3cb2 84bd a660 d6bc 378c bf3c
00000060: 55b5 103e 09fe 4f3c fd0d ca3d 73af 56bd
00000070: 3465 3fbc 7332 30bc 5902 57bd 1e49 5cbd
00000080: ece3 ee3c c586 853c 5015 25bd cf1e 423e
00000090: e09b 6a3e 5531 d43c 5321 a0bd 8547 91bc
000000a0: 518e 223d 5751 c03c b514 91bc 2af6 123c
000000b0: a243 dc3c 8a69 86bd c24d 3abd 7a19 403d
000000c0: d6a6 0dbd 2409 373e ef1e 75bc 9e4d 4c3e
000000d0: e931 b73c 7b9e 50bb 1e3f ddbc 9bef a0bd
000000e0: fa13 343e ed0b 2c3e 05cb 3f3e c4ca 403e
000000f0: 1f93 e4bb 5eda 19bd 5faf 90bc 0703 fb3d
00000100: 7ecd 85bd 510e 213e c7c9 263e 73a5 95bc
00000110: 2b02 dfbc 8ba2 fa3d c835 153e 2a3f 01bd
00000120: 317e f43d ce90 91bd 3a69 523e 618a f93d
00000130: 41a8 d13d 74e4 033e 5d1b b43d c7f4 233e
00000140: c78e 623d f2cc abbd 3c89 383d cde4 53bb
00000150: 80ec f8bc d184 62bd 39e3 373e 95d6 153e
00000160: 57a2 f1bc 97e1 83bc 91a2 373e 03eb 023d
00000170: d8ae 2bbd c4cc 133e 7ebd 123e be5a 73bd
00000180: a5f7 dd3b 4e7a 59bd 440b 703e 35a4 943c
00000190: 5ae5 7cbd 1817 153e 3cdd bcbd 28cc 283e
000001a0: aa8b b73c 76ea 303e 4b8e e53d 521e 93bd
000001b0: bcc4 b3bc f392 71bd a3be 81bd 0b43 3b3d
000001c0: d77f fcbb 6ad9 d6bc e08a 8cbc 4bbf eabc
000001d0: 5c06 4cbc 5688 c73d f0a0 073d 024b 3dbd
000001e0: ae37 8dbc 63fd 043d f95f 4c3e 713f 643d
000001f0: 30ec 60bc b77c 383e 8ac4 cebb db49 203e
00000200: beb0 073d cf3c 0fbd 7717 27bd 5536 03bd
00000210: 07d1 6c3e b6fd cb3c ccf7 073e 38ce 673e
00000220: 733f 193c e18c 593b 45f6 053d 78e6 b1bc
00000230: 3e82 1ebd 6615 213e b1f3 89bd 9d0d 9abd
00000240: 44a5 4abd 1d85 1a3e 5b55 7dbd f8ad 16bd
00000250: 938c 203d 49c6 adbd dbb0 63bd 6d90 ecbc
00000260: 20d9 ed3d ffa1 533e 20b4 283e 7dd5 83bd
00000270: e96b 033e ebaf de3c 54d5 c43d 752f b8bd
00000280: 747f 5bbd 9a93 8c3c 00d3 42bd 2dd4 42bd
00000290: b6f9 3f3e cb28 49bd 8003 4a3c 1e3d 443e
000002a0: c986 493d 9fc5 08bd bdce 143e 6cad 8abd
000002b0: 9e62 343e a35b d43d 24ca fb3d bc20 133e
000002c0: 7f90 973c ac63 8dbd 6eaa 05bd 76a3 553e
000002d0: 2845 413e 2915 b63c e6b4 70bd 9bbe 7fbd
000002e0: 995d 41bd c491 42bd 1904 2e3e 1857 b7bc
000002f0: 7ed5 413d bc56 333e 0760 d9bc 7772 a73c
00000300: 7d19 463e 2d1d 1c3e 2916 213e 2675 1a3e
00000310: 52c7 37bd d2e2 913c d48a d1bd 1f26 32bc
00000320: 159d 78bd 0565 303e 4f47 e43b cf38 f43c
00000330: 64a3 87bd d28f 08bd 6e7f f5bc cdd1 ae3c
00000340: 921f a23c 081c 383e e899 243e b376 12bd
00000350: e707 0d3e 70ae 40bc e8cf 9abd e17f 5d3e
00000360: 04d3 84bd df9c c7bb a131 4dbd 89f9 3bbd
00000370: 2653 96bd 28d9 583e 55ca a03b 2a17 203d
00000380: 749a ccbc 5198 973d 4d99 f3bc 06a8 65bd
00000390: 6885 ecbc dac0 d43c 708f 143e 9f98 223e
000003a0: ea3b 053e ce0c 9e3c 9b86 3e3e 0db9 fbbd
000003b0: 82d6 fa3d aac2 9fbc 385e bdbd b4d4 1dbd
000003c0: 5155 163e 4c20 fa3c f251 0cbd 04b9 babd
000003d0: 50b1 11bd 8af0 403e 7665 52bd fa60 353e
000003e0: 7508 67bc b354 cbbc 6944 17bd 5c53 183e
000003f0: 25d8 bcbe 61d1 97bb d5e1 193c 8f6e 3b3d

net.4.weight f4 [2, 256]
-3.6284301 0.03600804 0.06861988 0.47376898 -0.0012832136 0.00302862 0.755808 1.2698215
0.014474019 -0.02403111 0.05316726 0.18191034 0.02021867 0.4494734 0.01421654 -0.21012403
-0.32807168 0.02113121 -4.552708 0.069055386 0.8539634 -2.7999585 -0.011983725 -0.050645884
0.342666 0.005409385 1.0725697 0.017668003 -0.051748145 -0.006838104 0.017041028 0.0010446876
-0.020522032 -0.00950647 0.045367055 -0.5753247 0.14745437 -0.040297017 -0.008992553 0.009498037
-0.007184846 0.029091485 0.00045734228 -0.009846068 0.0057389364 -0.0046083555 -0.0031532638 -4.3427367
-0.039605647 -0.22930267 0.0009940476 0.057122864 0.051379364 -0.038323957 -0.040279333 0.26926765
0.07169471 0.018139064 0.12890299 -0.0895982 -0.044954598 0.030416973 -0.0029032875 -0.0937358
0.021847006 0.5367362 0.52788126 -0.0096297115 -0.039886527 0.8813599 0.17690314 0.0044865264
0.042015187 -0.0599112 -0.06025725 -0.49567172 0.7189285 0.12137343 -0.35887793 0.04861879
-0.05031245 0.04801288 0.05688254 -0.0090049645 0.027357452 0.007039064 -0.60722417 0.21354792
-0.0006251385 -0.0054358114 0.06981387 1.4121786 -0.038336225 -0.19927557 1.2685298 -0.0144553175
0.018431015 -0.05989229 0.42610505 0.029633954 -0.020072386 0.38937157 0.011052919 0.9308463
-0.039410096 0.21642439 0.9153846 0.05397718 -0.0049957903 -0.04119555 -0.021603426 0.024272863
-0.024003915 0.029071618 -0.01574894 -3.8991213e-05 0.013160973 -0.35015878 0.59875214 -0.029629614
0.014086653 -0.027709953 0.06524375 -0.5064668 -0.022865692 0.6846774 -0.0072335657 0.18367939
-0.033357695 -0.01808873 -0.026792657 -0.010706644 0.44481498 -0.0025530062 0.097048245 0.43165752
-0.048865866 -0.027990455 0.00060588506 0.013932292 0.015767183 -0.6396399 -0.009638742 -0.041982032
-0.008339182 0.62923545 -0.0027014837 0.017892102 -0.046399906 -0.02822514 -0.0014661363 -0.026367323
-0.80691916 1.0696385 0.050012484 -0.037756868 0.56205964 -0.00356639 1.1128489 -0.016596446
0.015338899 0.03803494 -0.05214121 -0.041892942 0.41195825 -0.060768962 -0.050692856 0.5162873
-0.046240572 -0.041376628 -0.14450508 -0.018761622 0.95441574 0.07833715 1.0756947 0.039193466
-0.0056802593 0.060895585 -0.0028457155 0.62216973 -0.7428009 -0.00010718806 0.03990216 -0.026605284
-0.0559229 0.0079886615 0.81964624 0.016473725 -0.03523041 0.080086015 -0.0048517915 0.009135221
0.6457096 0.06045159 0.5255977 -0.20159063 -0.03238351 -0.013029787 -0.014906871 -0.019138852
-0.0498006 0.4599431 0.012879587 -0.0075390604 -0.05342927 -0.04226754 0.04362076 -0.013301726
0.034940623 -0.9019246 0.85597426 0.027729342 0.14938956 0.033089392 0.9544768 0.29232818
-0.03542805 -0.002178916 0.023427729 -0.00979346 0.025217025 0.20878102 0.025770275 -0.051117353
-0.011894413 0.9380873 -0.036531262 0.02408376 0.03833467 -0.15952465 0.65388894 0.71905667
0.91365975 -0.0036453228 -0.10234354 -2.432604 0.21620438 0.040644836 -0.03567667 0.02549445
0.5081735 0.008786924 0.028554603 0.016323697 0.029553588 0.12541951 0.022708446 1.0581557
-0.015788019 -0.017370991 -0.036633942 0.21278976 -0.9316412 -0.04027366 -0.8892926 -0.051044904
00000000: 3338 68c0 2b7d 133d 9488 8c3d d991 f23e
00000010: 8131 a8ba d07b 463b a27c 413f 8389 a23f
00000020: 7024 6d3c e4dc c4bc eac5 593d b446 3a3e
00000030: a0a1 a53c 6121 e63e 7eec 683c c12a 57be
00000040: 03f9 a7be 5c1b ad3c c9af 91c0 e96c 8d3d
00000050: 589d 5a3f 8532 33c0 6357 44bc 0f72 4fbd
00000060: eb71 af3e 3641 b13b f749 893f 7dbc 903c
00000070: ddf5 53bd 2d12 e0bb a099 8b3c e6ed 883a
00000080: d21d a8bc 06c1 1bbc ced2 393d 7b48 13bf
00000090: 47fe 163e 7c0e 25bd 8055 13bc a89d 1b3c
000000a0: db6e ebbb 4451 ee3c 71c7 ef39 6751 21bc
000000b0: b00d bc3b b001 97bb fda6 4ebb b3f7 8ac0
000000c0: 8839 22bd 52ce 6abe b44a 823a aaf9 693d
000000d0: 2b73 523d 95f9 1cbd f1fb 24bd 73dd 893e
000000e0: add4 923d 6098 943c 25ff 033e 437f b7bd
000000f0: 5022 38bd 042d f93c 1545 3ebb 8ef8 bfbd
00000100: 7ef8 b23c 8b67 093f 3a23 073f f0c5 1dbc
00000110: 0e60 23bd cda0 613f 1926 353e b603 933b
00000120: 1e18 2c3d 7265 75bd 4ed0 76bd afc8 fdbe
00000130: b30b 383f a292 f83d d9be b7be 7f24 473d
00000140: 6d14 4ebd 27a9 443d abfd 683d 8f89 13bc
00000150: bc1c e03c f3a7 e63b 0b73 1bbf 4eac 5a3e
00000160: 56e0 23ba e41e b2bb 93fa 8e3d 45c2 b43f
00000170: 7206 1dbd e50e 4cbe 2f5f a23f ffd5 6cbc
00000180: a4fc 963c 9e51 75bd 712a da3e e8c2 f23c
00000190: d86e a4bc b65b c73e 4d17 353c f14b 6e3f
000001a0: 7b6c 21bd 5b9e 5d3e a556 6a3f 2d17 5d3d
000001b0: bab3 a3bb aabc 28bd abf9 b0bc e2d7 c63c
000001c0: dca3 c4bc 9a27 ee3c ec03 81bc 7f8a 23b8
000001d0: 1fa1 573c 0348 b3be d247 193f ceb9 f2bc
000001e0: b4cb 663c fcff e2bc 849e 853d cfa7 01bf
000001f0: d550 bbbc 0547 2f3f 8c07 edbb 7316 3c3e
00000200: 14a2 08bd d12e 94bc 467c dbbc eb6a 2fbc
00000210: cabe e33e 5650 27bb 3bc1 c63d 3702 dd3e
00000220: 9327 48bd 3d4c e5bc 42d4 1e3a 4544 643c
00000230: 2e2a 813c 71bf 23bf d0eb 1dbc 5af5 2bbd
00000240: 10a1 08bc 9315 213f 600b 31bb 7592 923c
00000250: d40d 3ebd 6938 e7bc 5f2b c0ba 4900 d8bc
00000260: 4192 4ebf eae9 883f e4d9 4c3d f2a6 1abd
00000270: 24e3 0f3f 18ba 69bb d571 8e3f 45f5 87bc
00000280: 0150 7b3c 86ca 1b3d 0592 55bd ef97 2bbd
00000290: 31ec d23e e0e8 78bd 50a3 4fbd 682b 043f
000002a0: c166 3dbd 8a7a 29bd 24f9 13be f9b1 99bc
000002b0: 9754 743f 3a6f a03d 5db0 893f 5489 203d
000002c0: 7821 babb a66d 793d 2f7f 3abb 8446 1f3f
000002d0: 3328 3ebf 27ca e0b8 7370 233d 53f3 d9bc
000002e0: 690f 65bd e0e2 023c 56d4 513f e8f3 863c
000002f0: c34d 10bd 2304 a43d c7fb 9ebb e5ab 153c
00000300: 394d 253f 169c 773d 928d 063f c66d 4ebe
00000310: 92a4 04bd e37a 55bc f33b 74bc 15c9 9cbc
00000320: b7fb 4bbd a97d eb3e e704 533c 390a f7bb
00000330: a6d8 5abd ba20 2dbd afab 323d 7cef 59bc
00000340: e61d 0f3d 88e4 66bf 2121 5b3f a528 e33c
00000350: 94f9 183e be88 073d 9758 743f 0aac 953e
00000360: 011d 11bd 25cc 0ebb 82eb bf3c c074 20bc
00000370: ef93 ce3c b1ca 553e 2f1c d33c 6e60 51bd
00000380: c9e0 42bc 7d26 703f cea1 15bd 4e4b c53c
00000390: d104 1d3d 6e5a 23be 4465 273f 1914 383f
000003a0: 9be5 693f 5ee6 6ebb 7d99 d1bd c9af 1bc0
000003b0: ae64 5d3e 337b 263d b321 12bd bdd9 d03c
000003c0: a917 023f 08f7 0f3c 58eb e93c 46b9 853c
000003d0: 5e1a f23c f96d 003e 1007 ba3c a571 873f
000003e0: e055 81bc 9c4d 8ebc 790d 16bd 8fe5 593e
000003f0: 0a80 6ebf fef5 24bd aea8 63bf 7614 51bd

net.4.bias f4 [2]
0.1367213 0.18051746
00000000: ab00 0c3e 92d9 383e
